Embedded_C/STM-AI/sine_model.tflite (tflite, 3168 bytes, 5 tensors)

sequential/dense_1/BiasAdd/ReadVariableOp f4 [16]
-0.13351451 -0.107499585 -0.15738025 -0.3674344 -0.041969992 0.12912956 0.0 -0.1310023
0.11247502 0.15000437 -0.003039337 -0.11689465 -0.44664827 -0.4512369 0.006156341 0.065678366
00000000: 07b8 08be be28 dcbd 4a28 21be 5d20 bcbe
00000010: bae8 2bbd 8a3a 043e 0000 0000 7825 06be
00000020: 4e59 e63d bf9a 193e 9d2f 47bb 7666 efbd
00000030: 15af e4be 8608 e7be 22bb c93b 6182 863d

sequential/dense/BiasAdd/ReadVariableOp f4 [16]
0.0 0.0 -0.6124391 -0.6067975 -0.03920033 -0.3230233 0.0 0.27611685
0.0 0.0 -0.48152918 0.0 0.47486717 0.0 0.43540794 0.0
00000000: 0000 0000 0000 0000 cfc8 1cbf 1557 1bbf
00000010: 8690 20bd 4f63 a5be 0000 0000 305f 8d3e
00000020: 0000 0000 0000 0000 fe8a f6be 0000 0000
00000030: ca21 f33e 0000 0000 caed de3e 0000 0000

sequential/dense/MatMul f4 [16, 1]
-0.07021606 -0.069709 0.30722928 0.5033018 0.3799083 0.2946456 -0.30579278 0.1876726
-0.26685703 -0.122875065 0.17610946 -0.23719355 -0.03741244 -0.13244808 0.17233832 -0.018726885
00000000: 70cd 8fbd 98c3 8ebd 284d 9d3e 63d8 003f
00000010: 5783 c23e cadb 963e df90 9cbe 3f2d 403e
00000020: 7ca1 88be eca5 fbbd 0a56 343e dee2 72be
00000030: c93d 19bd 78a0 07be 7579 303e 2069 99bc

sequential/dense_1/MatMul f4 [16, 16]
-0.3421851 0.40779302 -0.18145837 0.34089896 0.15592015 0.20716418 0.029153049 0.1666693
-0.2607295 0.3988429 -0.11484268 0.3665928 0.18323633 0.11134073 0.0011226466 -0.39037406
-0.06410724 -0.08680862 0.34676743 0.5614107 -0.055239107 0.566872 -0.30852157 0.0017293796
0.108890265 -0.15448233 -0.07879924 -0.29899836 0.005259713 -0.19885983 -0.24165127 0.15686384
-0.4187273 -0.18673894 -0.11139534 0.41118696 0.05271495 0.5602835 -0.26500994 0.15128316
0.14435372 0.2619036 0.1836507 -0.15631297 -0.24945135 0.2783309 -0.08426077 -0.3361569
-0.32805407 -0.3481402 -0.030936368 0.1771538 0.2562472 -0.092058666 -0.19031811 0.12841731
-0.20181203 -0.29095364 0.6288938 -0.13640213 -0.6296922 0.12889567 -0.39065543 -0.04070303
-0.07657555 -0.19614859 0.28001544 -0.4228412 0.36610067 0.28354186 -0.1661587 0.3689738
-0.39043888 -0.21627468 0.062649794 -0.11670518 -0.09762312 0.015825719 -0.0331101 0.12140891
0.3049226 0.05545765 -0.31893617 -0.42629096 -0.8268082 -0.12890527 -0.08539817 -0.35953835
0.31764784 0.09492406 0.28454974 0.32803085 0.4603852 -0.37550455 -0.065328404 -0.28263593
-0.35507348 -0.2481525 0.19309327 0.13068262 -0.1955018 -0.40771466 -0.16198024 -0.34466666
-0.077281594 -0.2583745 -0.06499532 -0.27054137 0.17051372 -0.355275 -0.1098797 0.43012574
-0.019020617 0.3061401 -0.25390062 0.4789556 0.3734738 -0.06858085 -0.20453566 -0.19247258
-0.25099546 -0.15395954 -0.30218297 -0.2870307 -0.33855906 0.025059015 0.07892711 -0.061136365
-0.19526425 -0.024587542 0.0064445785 -0.23969626 0.10340352 -0.17395931 -0.17936152 0.28888458
-0.007293254 -0.2742797 -1.1550126 0.22389367 0.16164282 -0.0020850003 0.093139164 -0.120559186
0.28836957 -0.39559782 -0.16304825 -0.37760243 0.14241281 0.3081912 -0.34220028 -0.03549517
-0.408949 -0.3662388 -0.92386866 0.11380163 -0.16524632 -0.40810573 0.13927583 0.32124004
-0.10788813 -0.22774817 -0.28766918 -0.37403038 -0.013587788 -0.25343674 0.3474857 -0.31907833
-0.15308595 -0.39320496 0.19493768 0.2894536 -0.13432208 -0.061112612 0.3058267 -0.110168874
-0.23318025 0.033112735 -0.1509685 -0.115751944 -0.03913015 -0.40895513 -0.12871036 -0.34979376
0.049337775 0.26614776 0.0074973702 0.039896935 0.2659746 0.06721327 0.1931786 -0.0593144
0.043892056 0.34028998 0.46654707 0.2530366 0.14603198 -0.3094431 0.27124026 -0.4255832
0.3934563 0.28342274 0.4313932 0.41007933 -0.4227447 0.16914198 0.015603301 -0.3340739
-0.4182816 0.26082852 -0.18899152 0.44896373 0.3640675 0.34898934 0.31192723 -0.40869752
0.1815922 -0.14519131 -0.09514505 0.31018052 -0.23021667 0.13033143 -0.4619313 0.17510656
-0.056103796 -0.3183542 -0.41867968 -0.39034 -0.2573741 -0.063011356 0.34148917 -0.3253975
-0.11358863 -0.2755292 0.061423153 0.38746426 -0.24484432 0.1812571 0.21341965 -0.35514462
-0.1574553 0.020877242 -0.557996 -0.3946404 0.50331473 -0.5382442 -0.38359335 0.5001542
-0.1378935 -0.25696027 -1.0424926 -0.41582197 -0.33951315 -0.05073583 0.31502673 0.2521899
00000000: e332 afbe 3fca d03e 39d0 39be 4f8a ae3e
00000010: 88a9 1f3e d922 543e 60d2 ee3c 5bab 2a3e
00000020: 567e 85be 2335 cc3e a432 ebbd 0db2 bb3e
00000030: 4ea2 3b3e 9c06 e43d c525 933a 1cdf c7be
00000040: a84a 83bd b8c8 b1bd 808b b13e 9db8 0f3f
00000050: 6742 62bd 861e 113f 8af6 9dbe 5aac e23a
00000060: dc01 df3d 9e30 1ebe 7f61 a1bd 5016 99be
00000070: ac59 ac3b e9a1 4bbe 6e73 77be eaa0 203e
00000080: 6d63 d6be 7e38 3fbe 3d23 e4bd 1987 d23e
00000090: a2eb 573d bd6e 0f3f 62af 87be f9e9 1a3e
000000a0: 76d1 133e 3b18 863e ee0e 3c3e 8210 20be
000000b0: 2d70 7fbe 6381 8e3e e990 acbd c21c acbe
000000c0: b4f6 a7be 6f3f b2be 446e fdbc ce67 353e
000000d0: d532 833e 4189 bcbd c0e2 42be d47f 033e
000000e0: d0a7 4ebe e0f7 94be 2fff 203f 00ad 0bbe
000000f0: 8233 21bf 3afd 033e fd03 c8be 38b8 26bd
00000100: a4d3 9cbd 2ddb 48be 2f5e 8f3e a47e d8be
00000110: 8c71 bb3e 662c 913e 8225 2abe 22ea bc3e
00000120: 9be7 c7be 1c77 5dbe 894e 803d 2003 efbd
00000130: a1ee c7bd f0a4 813c 759e 07bd 3ca5 f83d
00000140: d11e 9c3e 9027 633d 9a4b a3be cf42 dabe
00000150: b4a9 53bf beff 03be 3ce5 aebd 6915 b8be
00000160: bda2 a23e 8c67 c23d 81b0 913e a9f3 a73e
00000170: 9cb7 eb3e 2242 c0be e6ca 85bd a8b5 90be
00000180: 31cc b5be b01b 7ebe 3eba 453e aad1 053e
00000190: a031 48be fabf d0be 26de 25be 2678 b0be
000001a0: d045 9ebd aa49 84be 441c 85bd 6684 8abe
000001b0: 269b 2e3e 9be6 b5be 9c08 e1bd 7139 dc3e
000001c0: 20d1 9bbc 65be 9c3e 43ff 81be ab39 f53e
000001d0: f537 bf3e 1e74 8cbd cc71 51be 8817 45be
000001e0: 7a82 80be 92a7 1dbe bab7 9abe b0f5 92be
000001f0: 9d57 adbe 9048 cd3c 89a4 a13d 206a 7abd
00000200: 5af3 47be d06b c9bc 0b2d d33b f072 75be
00000210: 3ac5 d33d 6422 32be 8caa 37be aee8 933e
00000220: 40fc eebb 646e 8cbe 74d7 93bf 6244 653e
00000230: b285 253e 80a4 08bb bfbf be3d bce7 f6bd
00000240: 2da5 933e cc8b cabe 1ff6 26be 1b55 c1be
00000250: aad4 113e 3dcb 9d3e e034 afbe 6263 11bd
00000260: c361 d1be a783 bbbe a882 6cbf d410 e93d
00000270: 5536 29be 3cf3 d0be 539e 0e3e 9379 a43e
00000280: 74f4 dcbd d136 69be 6049 93be e980 bfbe
00000290: 509f 5ebc 76c2 81be a5e9 b13e 3c5e a3be
000002a0: 90c2 1cbe 2952 c9be be9d 473e 4333 943e
000002b0: ba8b 09be 3851 7abd 5195 9c3e 38a0 e1bd
000002c0: cec6 6ebe 38a1 073d 7d97 1abe 5b0f edbd
000002d0: f046 20bd 9162 d1be a6cc 03be 2b18 b3be
000002e0: 6816 4a3d 8544 883e 80ac f53b f86a 233d
000002f0: d32d 883e 1ca7 893d 9cd0 453e a8f3 72bd
00000300: 28c8 333d 7d3a ae3e 42df ee3e 038e 813e
00000310: 6889 153e 536f 9ebe 01e0 8a3e 0be6 d9be
00000320: 1b73 c93e c91c 913e 92df dc3e ebf5 d13e
00000330: fe71 d8be 8e33 2d3e fda4 7f3c bc0b abbe
00000340: 0229 d6be 518b 853e fe86 41be 93de e53e
00000350: 0e67 ba3e bbae b23e edb4 9f3e cd40 d1be
00000360: 4ef3 393e 08ad 14be 68db c2bd fbcf 9e3e
00000370: ebbd 6bbe 9a75 053e 4282 ecbe 224f 333e
00000380: 18cd 65bd 52ff a2be 2f5d d6be a5da c7be
00000390: 8ac6 83be 190c 81bd abd7 ae3e 809a a6be
000003a0: 28a1 e8bd 2a12 8dbe d896 7b3d b761 c63e
000003b0: 78b8 7abe 769b 393e ae8a 5a3e 84d5 b5be
000003c0: f63b 21be c006 ab3c d3d8 0ebf 4e0e cabe
000003d0: 3cd9 003f 5fca 09bf 5966 c4be 1b0a 003f
000003e0: f433 0dbe 4c90 83be 6670 85bf 9ee6 d4be
000003f0: abd4 adbe 60d0 4fbd 2f4b a13e 091f 813e

sequential/dense_2/MatMul f4 [1, 16]
0.37505528 -0.56451124 -0.1816697 1.3434768 0.44183776 -0.7350963 0.48060417 -0.7347113
0.5010462 0.46594387 0.34805292 0.13326102 1.7132443 1.6140788 -0.10825165 1.2876786
00000000: 3f07 c03e cf83 10bf 9f07 3abe 0cf7 ab3f
00000010: 8f38 e23e 452f 3cbf c011 f63e 0a16 3cbf
00000020: 9044 003f 3290 ee3e fe33 b23e 9475 083e
00000030: 974b db3f 229a ce3f 0bb3 ddbd a7d2 a43f
