AI/NLP/4_Miscellaneous/nations_trans/trained_model.pkl (torch_old, 432015 bytes, 2 tensors)

weight f4 [14, 50]
0.028553804 -0.09018311 -0.22091593 0.047348887 0.0150001 0.027190685 0.20848307 0.11093725
0.11557058 -0.06618092 -0.10319275 -0.042671893 0.13639385 -0.10467976 -0.18126118 -0.016625326
-0.049925078 0.17592837 -0.18032512 -0.011707042 -0.10429896 0.15298474 0.21058083 -0.13109362
-0.17897236 -0.1968609 0.11938164 0.04539902 -0.16070165 0.07726895 -0.10101663 0.17248118
-0.23635308 -0.20162462 0.05498395 -0.0026280794 0.2040799 -0.13711269 -0.16105698 -0.24294005
0.14562772 0.18239693 -0.117443345 -0.094142415 -0.23005852 -0.059703976 0.175411 -0.10735039
-0.2063643 0.07846249 -0.06915841 0.059675388 0.1231726 -0.12906447 -0.09118967 0.06532346
0.06069846 0.109634355 0.01660004 -0.08765311 0.115672976 0.096697524 -0.14755711 -0.1521461
-0.013582651 -0.21526602 -0.23823963 0.035998903 0.04016866 -0.24875775 0.22283697 -0.24204554
-0.22740056 0.013004362 -0.06156756 0.06993944 -0.03778488 -0.2243526 0.16727337 -0.14622864
-0.164967 -0.05629002 0.018994404 -0.053344276 -0.2507415 0.17836651 0.2075816 -0.11509811
-0.10029225 0.08026175 -0.08804522 -0.12250555 -0.123123854 0.23942897 -0.007576542 -0.1797542
-0.23117784 0.1341381 -0.054094043 -0.12181013 -0.25487995 -0.18898202 0.03878805 0.0323558
0.021662854 -0.17381626 -0.23840004 0.07773207 0.15583822 0.0732442 0.14518422 0.037205067
-0.1039651 0.24659011 -0.10394688 -0.13101353 0.28220597 -0.1480636 -0.051201157 0.14446008
-0.1298361 0.049338423 -0.12779158 0.19427899 0.051682223 0.16573921 -0.051345017 -0.24682862
-0.13316785 0.045058057 0.046147536 -0.07470954 -0.02414077 -0.12975664 -0.056186877 0.105480894
-0.21146864 0.17234686 -0.14108685 -0.12620957 -0.1148529 0.01937669 0.2512342 -0.023621742
0.055312652 0.053658593 -0.1991387 -0.15860449 -0.1973074 -0.055088848 0.22705136 0.054201674
0.11910129 0.059034947 0.04303856 -0.0037662473 -0.08053828 -0.08471699 -0.08425793 -0.11343536
0.12837698 -0.26050884 -0.042072725 0.19031234 -0.018489575 0.19389224 0.20821506 -0.046339408
-0.041121278 -0.13535622 -0.015102244 -0.13250178 0.23174354 -0.106943466 -0.13944314 0.0021082668
-0.20701222 -0.17192346 -0.22032945 0.23858772 0.042525265 -0.08654683 0.12706655 0.21969283
-0.047170114 0.23896311 -0.01634915 -0.01920325 -0.18828446 -0.22684188 0.24497093 0.034863025
0.051434338 -0.20606188 0.13471627 0.06456711 0.030625192 -0.13434416 0.10838899 -0.079594426
0.044444624 0.11973196 0.14300947 0.21488146 0.088812426 0.056417324 0.21544267 0.11179054
0.012049429 0.023916202 -0.054245844 0.11694466 -0.033624988 -0.06981936 -0.19934848 0.042344283
0.23833202 -0.17446825 0.010195563 0.17379656 -0.21220729 0.2633663 0.16255112 0.12922768
-0.0902858 0.0085935565 0.104656436 -0.14111678 0.07798645 0.04338338 0.024829326 0.20876478
0.0920405 -0.21167673 -0.21959288 0.12339486 -0.17081322 0.16830035 -0.26251674 0.05615257
0.04642025 -0.039487153 -0.03352732 -0.15983337 -0.18327805 0.18573487 -0.018301722 -0.10753758
0.10364773 -0.22016342 -0.19759983 0.17389983 0.1880639 -0.024012808 0.08306802 -0.070387304
00000000: abe9 e93c ecb1 b8bd c937 62be e8f0 413d
00000010: fbc2 753c 00bf de3c 967c 553e 1233 e33d
00000020: 45b0 ec3d dd89 87bd b856 d3bd b9c8 2ebd
00000030: d4aa 0b3e 5862 d6bd 889c 39be d631 88bc
00000040: 3d7e 4cbd 9126 343e 26a7 38be e5ce 3fbc
00000050: b19a d5bd 08a8 1c3e 80a2 573e 683d 06be
00000060: 8844 37be e795 49be 5c7e f43d 53f4 393d
00000070: f98e 24be 2f3f 9e3d cfe1 cebd e89e 303e
00000080: 8b06 72be af76 4ebe da36 613d db3b 2cbb
00000090: 52fa 503e 4567 0cbe 1fec 24be 47c5 78be
000000a0: 6f1f 153e 43c6 3a3e 2386 f0bd bdcd c0bd
000000b0: 7694 6bbe 288c 74bd f19e 333e 85da dbbd
000000c0: 2a51 53be f1b0 a03d eda2 8dbd 2e6e 743d
000000d0: eb41 fc3d 7a29 04be a6c1 babd 4ec8 853d
000000e0: f39e 783d fa87 e03d cffc 873c 7983 b3bd
000000f0: f4e5 ec3d 5a09 c63d 3619 17be 30cc 1bbe
00000100: c489 5ebc b26e 5cbe 17f5 73be 9673 133d
00000110: e587 243d 5aba 7ebe 602f 643e c9da 77be
00000120: b1db 68be 3f10 553c 442e 7cbd 693c 8f3d
00000130: 51c4 1abd b0bc 65be b649 2b3e f6bc 15be
00000140: 1ced 28be 5d90 66bd 279a 9b3c 877f 5abd
00000150: 3161 80be b6a5 363e 4590 543e 8fb8 ebbd
00000160: 0666 cdbd 4660 a43d 0d51 b4bd 31e4 fabd
00000170: 5c28 fcbd de2c 753e a444 f8bb 7c11 38be
00000180: e2b9 6cbe 805b 093e b791 5dbd 9777 f9bd
00000190: a07f 82be 8184 41be 38e0 1e3d 8487 043d
000001a0: 4c76 b13c e4fc 31be 241f 74be fe31 9f3d
000001b0: 0e94 1f3e 0e01 963d 2cab 143e 5764 183d
000001c0: a8eb d4bd 1e82 7c3e 1ae2 d4bd 6928 06be
000001d0: 4d7d 903e fc9d 17be 4eb8 51bd 58ed 133e
000001e0: c1f3 04be 1617 4a3d ccdb 02be 12f1 463e
000001f0: bdb0 533d 8ab7 293e 274f 52bd a4c0 7cbe
00000200: 275d 08be cc8e 383d 3305 3d3d 5101 99bd
00000210: ddc2 c5bc edde 04be 3624 66bd 5e06 d83d
00000220: 3c8b 58be b27b 303e 1279 10be 153d 01be
00000230: ff37 ebbd ddbb 9e3c c5a1 803e 6282 c1bc
00000240: 858f 623d 1dc9 5b3d 04eb 4bbe 3769 22be
00000250: f30a 4abe d8a4 61bd 2780 683e 9302 5e3d
00000260: 61eb f33d a1ce 713d 3349 303d 25d3 76bb
00000270: 41f1 a4bd 1a80 adbd 6c8f acbd cc50 e8bd
00000280: 4175 033e 6a61 85be 7354 2cbd 3de1 423e
00000290: 7377 97bc b08b 463e 5436 553e 64ce 3dbd
000002a0: c96e 28bd d29a 0abe 676f 77bc 8cae 07be
000002b0: 2e4e 6d3e 2d05 dbbd 2fca 0ebe d92a 0a3b
000002c0: 03fb 53be b40c 30be 0b9e 61be 5750 743e
000002d0: f92e 2e3d 773f b1bd bc1d 023e 28f7 603e
000002e0: 7335 41bd bfb2 743e a7ee 85bc 2250 9dbc
000002f0: a4cd 40be 3d49 68be a9d9 7a3e 88cc 0e3d
00000300: d0ac 523d e301 53be 10f3 093e c33b 843d
00000310: afe1 fa3c 8491 09be 0cfb dd3d 6702 a3bd
00000320: 910b 363d 0836 f53d 1371 123e e309 5c3e
00000330: 4ae3 b53d da15 673d 019d 5c3e 70f2 e43d
00000340: f86a 453c e9eb c33c e430 5ebd af80 ef3d
00000350: 5bba 09bd 74fd 8ebd 0222 4cbe 3371 2d3d
00000360: 4f0d 743e cea7 32be 4a0b 273c baf7 313e
00000370: de4c 59be f3d7 863e cd73 263e 4354 043e
00000380: c3e7 b8bd fdcb 0c3c 1d56 d63d eb80 10be
00000390: 5cb7 9f3d c5b2 313d df66 cb3c 6fc6 553e
000003a0: bb7f bc3d c9c1 58be f5dc 60be 72b6 fc3d
000003b0: a9e9 2ebe ed56 2c3e 9868 86be 3d00 663d
000003c0: 2923 3e3d 48bd 21bd f153 09bd 5cab 23be
000003d0: 3ead 3bbe 4831 3e3e 7eed 95bc aa3c dcbd
000003e0: 4345 d43d 8572 61be 9c57 4abe cc12 323e
000003f0: d393 403e 82b6 c4bc 911f aa3d 3827 90bd

weight f4 [55, 50]
0.13769533 -0.1612058 -0.044689335 -0.25891307 -0.14033577 0.17507479 -0.1561379 -0.13863656
-0.26671043 -0.15688823 0.061479963 0.1854098 0.19078095 -0.19256867 -0.13441059 0.21943107
-0.09914909 -0.13572751 0.03384433 0.22978902 0.04062286 -0.09047843 0.2051218 -0.15000822
-0.13725418 0.09696306 0.23153272 -0.08211412 0.12444526 -0.06713931 -0.09428347 -0.19279455
-0.17857611 -0.17592975 0.10834165 0.18502651 0.017952738 0.26193196 -0.19170153 -0.075925075
-0.07547021 -0.09221878 -0.111522466 0.0069196145 0.079554886 0.15567383 0.087526254 0.21917734
0.070239305 -0.035938624 0.06870824 -0.17237371 0.069654875 -0.13680404 0.25442293 -0.14953531
-0.19442493 -0.21775877 -0.13579331 -0.049680687 0.07421876 0.16502136 0.07097468 0.10078594
0.02289538 0.0647083 -0.12875596 0.12528604 0.15316314 0.18495105 0.05867328 -0.23192692
-0.14968641 -0.071528055 -0.05847587 0.24770199 0.06264774 0.06709666 -0.22226654 -0.15991376
0.18062298 -0.08137312 -0.01223725 0.07127661 0.16755182 0.08213478 -0.16499653 0.06083178
-0.13378674 -0.18903615 -0.17923455 0.1551347 0.17302357 0.1168469 0.082612276 0.050128095
-0.16373889 -0.02147621 0.016496517 -0.20322442 0.18358862 -0.14960018 -0.1426754 0.02331271
-0.09847925 -0.09925725 -0.06029027 0.03937338 -0.00904125 -0.001209904 -0.08673053 -0.16126972
-0.047094643 -0.042123474 -0.1700294 0.14264959 0.02946529 0.22801727 -0.18059447 -0.06517162
0.013628371 0.24347916 -0.26593506 -0.21531898 0.11666628 -0.040096655 0.17267406 -0.11982849
-0.23462218 -0.1695344 0.23525552 -0.04260204 0.1986733 -0.1894897 0.07191681 -0.07950157
-0.0062007294 -0.19954963 -0.098950155 -0.20010084 -0.028455574 0.025618358 0.20138507 -0.12733561
-0.13514528 0.08766554 0.17505287 0.07500255 0.039571807 0.19791396 0.18049003 0.20499913
0.095549636 0.16430596 0.18240216 -0.041463077 0.1189292 0.12848577 0.13346769 -0.21854293
-0.24100304 0.17207648 -0.19689468 0.13011682 -0.056085926 0.08106244 -0.027936155 -0.18502499
0.00044109416 0.18514064 -0.19663402 0.04626213 0.040629014 0.09185617 -0.23508187 0.18912943
-0.16868694 -0.09374106 -0.1832877 -0.15892272 -0.06087005 -0.26151004 0.13340968 0.16212226
0.19290859 -0.21982992 -0.015736595 -0.15625134 -0.11949621 -0.11576917 0.0967022 -0.18477906
-0.19608334 -0.12941639 0.008722832 0.09751474 -0.065613374 0.06708658 -0.012839756 -0.18951032
-0.16215475 -0.042645417 -0.16860531 -0.052168828 0.16149978 0.08676632 0.16479532 -0.06896935
0.12096277 -0.04438648 -0.2419762 -0.015839474 -0.024723258 0.15062134 -0.17267479 0.029949127
-0.12691966 -0.015077587 0.098923214 -0.12032252 0.050495636 -0.16840272 0.0554284 0.28494748
0.09845191 0.2333311 0.06254139 -0.09998305 0.10082299 0.023179539 0.114500135 0.19631213
0.083331 0.1947138 0.013483602 0.21566103 0.13759117 0.15017806 -0.19234882 -0.19954023
-0.10127379 -0.15488541 0.103704825 0.15727904 0.18626848 -0.032558687 -0.17709725 0.20140763
0.13276882 0.0731451 -0.027582949 -0.18466035 0.06317736 -0.16569139 -0.06851031 0.27346683
00000000: 0100 0d3e 2213 25be 2a0c 37bd 4190 84be
00000010: 2eb4 0fbe ce46 333e 9de2 1fbe bef6 0dbe
00000020: 458e 88be 4fa7 20be 6ad2 7b3d 11dc 3d3e
00000030: 155c 433e b930 45be eea2 09be 8ab2 603e
00000040: ae0e cbbd 27fc 0abe 5aa0 0a3d d04d 6b3e
00000050: 2864 263d c14c b9bd 730b 523e c19b 19be
00000060: 5c8c 0cbe 9294 c63d ea16 6d3e 732b a8bd
00000070: 28dd fe3d 5680 89bd b117 c1bd ef6b 45be
00000080: a8dc 36be ee26 34be 3ae2 dd3d 9777 3d3e
00000090: 9f11 933c f21b 863e 684d 44be 9b7e 9bbd
000000a0: 2090 9abd 33dd bcbd e465 e4bd efbd e23b
000000b0: aced a23d f668 1f3e f740 b33d 0670 603e
000000c0: a0d9 8f3d 6134 13bd e8b6 8c3d bc82 30be
000000d0: 37a7 8e3d 5c16 0cbe b943 823e c91f 19be
000000e0: 5417 47be 28fc 5ebe 670d 0bbe fa7d 4bbd
000000f0: 0100 983d 5cfb 283e 2c5b 913d dc68 ce3d
00000100: 188f bb3c c985 843d 9ad8 03be fc4a 003e
00000110: ccd6 1c3e cf63 3d3e 6553 703d 407e 6dbe
00000120: 6547 19be 4d7d 92bd 6584 6fbd 97a5 7d3e
00000130: 754d 803d f969 893d d799 63be 6fc0 23be
00000140: 3bf5 383e f3a6 a6bd bf7e 48bc 79f9 913d
00000150: b492 2b3e 4836 a83d daf4 28be bf2a 793d
00000160: 64ff 08be b192 41be 4389 37be a1db 1e3e
00000170: 172d 313e 6d4d ef3d a030 a93d 1e53 4d3d
00000180: 2bab 27be e0ee afbc b423 873c 101a 50be
00000190: a8fe 3b3e ca30 19be 8019 12be 4cfa be3c
000001a0: 7daf c9bd 6347 cbbd eef2 76bd fb45 213d
000001b0: c021 14bc a495 9eba c79f b1bd e423 25be
000001c0: 50e6 40bd aa89 2cbd 301c 2ebe bc12 123e
000001d0: 3161 f13c 5c7d 693e c2ed 38be b378 85bd
000001e0: 8849 5f3c 9a52 793e a428 88be 947c 5cbe
000001f0: bbee ee3d 643c 24bd 78d1 303e a468 f5bd
00000200: cc40 70be 6d9a 2dbe d3e6 703e 7a7f 2ebd
00000210: 0371 4b3e 9709 42be 1f49 933d b8d1 a2bd
00000220: 7d2f cbbb bd56 4cbe 61a6 cabd 3ce7 4cbe
00000230: aa1b e9bc 97dd d13c e337 4e3e 4464 02be
00000240: 8663 0abe fe89 b33d 0f41 333e f09a 993d
00000250: 0c16 223d f5a9 4a3e 61d2 383e 4beb 513e
00000260: 87af c33d d23f 283e a2c7 3a3e 30d5 29bd
00000270: 2791 f33d c691 033e c1ab 083e b8c9 5fbe
00000280: 80c9 76be d134 303e c29e 49be 583d 053e
00000290: 5bba 65bd 1104 a63d 5dda e4bc 3177 3dbe
000002a0: a842 e739 8295 3d3e 6e5a 49be 5c7d 3d3d
000002b0: 9c6a 263d 161f bc3d 4db9 70be 25ab 413e
000002c0: 45bc 2cbe 50fb bfbd c5af 3bbe a3bc 22be
000002d0: e052 79bd a5e4 85be 8c9c 083e 6103 263e
000002e0: d489 453e 181b 61be 08ea 80bc 5a00 20be
000002f0: 6eba f4bd 6318 edbd ce0b c63d b936 3dbe
00000300: 12ca 48be bb85 04be 36ea 0e3c cfb5 c73d
00000310: 4e60 86bd b064 893d d75d 52bc fe0e 42be
00000320: e50b 26be f6ac 2ebd dfa6 2cbe fbae 55bd
00000330: 3360 253e 8ab2 b13d 1bc0 283e cd3f 8dbd
00000340: 54bb f73d 99ce 35bd 9cc8 77be c9c1 81bc
00000350: 6e88 cabc 7b3c 1a3e a9d1 30be df57 f53c
00000360: 3af7 01be fc07 77bc 4198 ca3d a76b f6bd
00000370: 83d4 4e3d c371 2cbe e408 633d a3e4 913e
00000380: 28a1 c93d 59ee 6e3e b315 803d eac3 ccbd
00000390: 497c ce3d 04e3 bd3c 0c7f ea3d 0c06 493e
000003a0: 71a9 aa3d 0e63 473e 53ea 5c3c 3fd6 5c3e
000003b0: b3e4 0c3e 47c8 193e 17f7 44be 4654 4cbe
000003c0: a268 cfbd 489a 1ebe 3263 d43d c20d 213e
000003d0: 2abd 3e3e 425c 05bd fb58 35be cd3d 4e3e
000003e0: 8df4 073e 19cd 953d a3f5 e1bc 9a17 3dbe
000003f0: 2263 813d 01ab 29be 224f 8cbd d803 8c3e
