Machine_learning/General/15_Miscellaneous/mnist.pth (torch, 89871 bytes, 8 tensors)

conv1.weight f4 [10, 1, 5, 5]
0	0x3d89cd29	0.06728584
1	0xbe778b3b	-0.24174206
2	0xbea963b3	-0.33083877
3	0xbe8af4e7	-0.2713997
4	0xbe9195e2	-0.28434664
5	0x3e4bb995	0.19895013
6	0x3c97b4b4	0.018518783
7	0xbdc2ffb3	-0.09521427
8	0xbe3526b1	-0.17690541
9	0xbe4cd14c	-0.20001715
10	0x3e48e10c	0.19617099
11	0x3ebde520	0.3708887
12	0x3ecb0783	0.39654168
13	0x3e339d9d	0.17540593
14	0xbd2b941b	-0.04188929
15	0x3c22bc01	0.009932519
16	0x3e921c31	0.28537133
17	0x3e9fe7e0	0.31231594
18	0x3eeb3790	0.45940828
19	0x3e2df298	0.16987073
20	0xbe8c7c08	-0.27438378
21	0xbea97ded	-0.33103886
22	0xbe957920	-0.29193974
23	0xbe572d98	-0.21013486
24	0xbc523021	-0.012828858
25	0x3e3df85b	0.18551771
26	0x3e8a50ab	0.2701467
27	0xbd19a21e	-0.037508123
28	0xbed94d96	-0.42442006
29	0xbe783293	-0.24238043
30	0x3e977d60	0.2958784
31	0x3ec1e616	0.37870854
32	0xbc94c7e1	-0.018161716
33	0xbedc9c00	-0.4308777
34	0xbef18e73	-0.47178993
35	0x3e6c1041	0.23053075
36	0x3f0b0039	0.54297215
37	0xbe47b9d1	-0.19504477
38	0xbe8b183c	-0.27166927
39	0xbed32fa9	-0.412473
40	0x3eb54aff	0.3540878
41	0x3e038589	0.12843908
42	0x3dc32641	0.09528781
43	0xbe37e401	-0.1795807
44	0xbe81ff04	-0.25389874
45	0x3e24977a	0.16073409
46	0x3de0bad4	0.10973135
47	0x3dcd38d2	0.10020603
48	0xbdbbb04e	-0.09164487
49	0xbd6bf3fd	-0.057605732
50	0xbe89dea7	-0.26927683
51	0xbe25bc58	-0.16185129
52	0xbc481b46	-0.012213534
53	0x3dcfb60e	0.10142146
54	0x3ea43f47	0.32079527
55	0xbe3af9f3	-0.1825941
56	0xbe092fa9	-0.13397087
57	0x3d6e2866	0.058143996
58	0x3edb57eb	0.42840514
59	0x3da7cc3f	0.08193254
60	0xbe50a1dc	-0.20374244
61	0x3e3ca6f4	0.18423063
62	0x3efe7d13	0.497048
63	0x3ee8938c	0.4542507
64	0xbeac7d4a	-0.33689338
65	0x3e21c595	0.15798028
66	0x3e80fe09	0.25193813
67	0x3e8fd4b1	0.28091958
68	0xbe74c0e7	-0.23901711
69	0xbee137e5	-0.43987957
70	0x3d7fa1f6	0.062410317
71	0xbe0fefe7	-0.14056359
72	0xbe2dfde3	-0.16991381
73	0xbe9aea70	-0.30256987
74	0xbe02b86f	-0.12765668
75	0x3e8d8ebb	0.27647957
76	0x3f073331	0.52812487
77	0x3eda3047	0.42614958
78	0x3e14e802	0.14541629
79	0x3e923b81	0.28561023
80	0xbe1e9d06	-0.15489587
81	0x3d5b8266	0.053591155
82	0x3e3aba38	0.182351
83	0x3e5a2722	0.2130399
84	0x3e6364a7	0.22206365
85	0xbe9c8144	-0.30567372
86	0xbe9dfd84	-0.3085748
87	0x3c76ba93	0.015059131
88	0xbd1984b2	-0.037480064
89	0x3cdce54d	0.026964808
90	0xbd69c67f	-0.057074066
91	0xbecc1c15	-0.39865175
92	0xbe992e03	-0.29917917
93	0xbe36a840	-0.1783762
94	0xbece89bf	-0.40339467
95	0xbc56005f	-0.013061612
96	0x3d1da28b	0.03848509
97	0xbe53f2d3	-0.20698099
98	0xbe8b4229	-0.27198914
99	0xbe2deb37	-0.16984259
100	0x3ed069b2	0.4070564
101	0x3cdf037c	0.027223341
102	0x3e0a332c	0.13496083
103	0x3c905ec3	0.01762331
104	0xbe517c00	-0.20457458
105	0xbe110ed4	-0.14165813
106	0x3e62a278	0.2213229
107	0x3da08067	0.07836991
108	0x3daba951	0.08381904
109	0x3c030627	0.007997072
110	0xbd598ce0	-0.053112864
111	0x3e7c0a99	0.24613418
112	0x3e5776f8	0.21041477
113	0xbe53abc5	-0.20670994
114	0x3d34d3de	0.044147365
115	0x3daef9b1	0.085437186
116	0x3e8bbc33	0.27292022
117	0x3e2c1356	0.16804251
118	0xbd7522c9	-0.059847627
119	0xbbbae756	-0.005703847
120	0xbe53fa16	-0.20700869
121	0xbc3bdd76	-0.011466375
122	0x3e6d0ec7	0.23150168
123	0xbd44b51b	-0.048024278
124	0x3e48405d	0.19555803
125	0xbebe4a61	-0.37166122
126	0xbed5f4ad	-0.41788235
127	0xbe68147e	-0.22664067
128	0x3e1e23da	0.15443364
129	0x3ea8c47e	0.32962412
130	0xbece3b40	-0.4027958
131	0xbd7c44fa	-0.06158922
132	0x3e6f306a	0.23358312
133	0x3ebe093c	0.3711642
134	0x3e27868b	0.16359918
135	0x3d10d878	0.03536269
136	0x3dd17156	0.10226695
137	0x3d8bef82	0.06832792
138	0x3c8afb79	0.016965615
139	0xbdcd1945	-0.100145854
140	0xbd52c58d	-0.05145793
141	0xbd7ffa91	-0.062494818
142	0xbe4b243d	-0.19838043
143	0x3e1ff3ff	0.15620421
144	0x3e6d6282	0.23182109
145	0x3cee3b7c	0.029081099
146	0x3d5f45eb	0.05451004
147	0x3ce35dd4	0.027754702
148	0x3e19b319	0.15009727
149	0x3e796c09	0.24357618
150	0xbe1e5c2e	-0.15464851
151	0x3dc28caf	0.094994895
152	0xbdbc8965	-0.092058934
153	0xbcd90c54	-0.026495136
154	0xbe9001a5	-0.28126255
155	0xbe66bd1f	-0.22533081
156	0xbe678066	-0.22607574
157	0xbe2ab0e7	-0.16669045
158	0x3e063a9c	0.13108295
159	0xbdce2f3d	-0.10067604
160	0xbe719cc2	-0.23594955
161	0x3ce251f7	0.027626975
162	0x3d3c30f8	0.045945138
163	0x3dba58fd	0.090990044
164	0xbe383ff2	-0.17993143
165	0xbc29adc5	-0.010356371
166	0xbdaab802	-0.08335878
167	0xbd18fb90	-0.037349284
168	0xbe250b0c	-0.16117495
169	0xbcdf55eb	-0.027262649
170	0x3b59eb5f	0.0033251864
171	0x3e1b2561	0.15150978
172	0x3e1d911b	0.15387385
173	0x3e91e6af	0.2849631
174	0x3eff5953	0.49872836
175	0x3d3cb56c	0.046071455
176	0x3e47b979	0.19504346
177	0x3e458a85	0.19291122
178	0xbde4fd32	-0.11181106
179	0x3e81ba7e	0.25337595
180	0xbe456b34	-0.19279176
181	0xbe2a4a11	-0.16629817
182	0xbed2ee8a	-0.41197616
183	0xbedf02d6	-0.4355685
184	0xbef7c764	-0.4839431
185	0x3e24c2da	0.16089955
186	0xbddf9ad3	-0.10918202
187	0xbea05b0d	-0.31319466
188	0xbe83ca45	-0.25740257
189	0xbe81944b	-0.2530845
190	0x3e75d42d	0.2400672
191	0x3e51cffd	0.20489497
192	0x3dcc8230	0.09985769
193	0x3e47fcf8	0.19530094
194	0x3ebb5703	0.36589822
195	0xbdb5c8ff	-0.088762276
196	0x3ea42818	0.3206184
197	0x3ef52af2	0.47884327
198	0x3ed18dbd	0.4092845
199	0x3c56145f	0.01306638
200	0x3bdf9a93	0.0068238466
201	0xbde1d3b3	-0.110267065
202	0x3e819fc1	0.25317195
203	0x3d87d2c0	0.06631994
204	0x3d484008	0.04888919
205	0xbd938ca3	-0.07204559
206	0xbd93b766	-0.07212715
207	0x3de41d9a	0.111384585
208	0x3ebd9daa	0.3703435
209	0x3e997d02	0.29978186
210	0xbda97aba	-0.08275361
211	0xbd9cdc7c	-0.076592416
212	0xbe7bc81f	-0.24588059
213	0x3e893a9d	0.2680253
214	0x3ee89e55	0.45433298
215	0x3c9651e2	0.018349592
216	0xbc2f6605	-0.010705476
217	0xbe9d90f7	-0.30774662
218	0xbe1336d1	-0.1437638
219	0x3ed2ce0c	0.41172826
220	0xbecce76e	-0.40020317
221	0xbde85ad8	-0.11345452
222	0xbef28556	-0.47367352
223	0xbef9ce53	-0.48790225
224	0x3986293a	0.00025589188
225	0xbdc3b251	-0.095554955
226	0xbb1127b1	-0.0022148902
227	0x3eab2df2	0.3343349
228	0x3eb9fa0a	0.36323577
229	0x3ec3118e	0.3809933
230	0xbdd0c5ad	-0.10193954
231	0xbe595f37	-0.21227728
232	0x3e8cfece	0.2753815
233	0x3df6cd37	0.120508604
234	0x3de8fe8d	0.11376677
235	0xbdb5301f	-0.08847069
236	0xbe5bb974	-0.21457464
237	0x3e225757	0.1585363
238	0x3e7c3464	0.2462936
239	0xbcfe260f	-0.031024007
240	0xbe908faa	-0.28234607
241	0xbe09452d	-0.13405295
242	0xbdaa8818	-0.08326739
243	0xbd47368e	-0.04863601
244	0xbdb7a442	-0.089668766
245	0xbe56ad5d	-0.2096457
246	0xbef69507	-0.48160574
247	0xbef900b6	-0.48633355
248	0xbe99891b	-0.29987416
249	0x3d8a3dd8	0.06750077

conv1.bias f4 [10]
0	0xbddb3c14	-0.10704818
1	0xbdb9619b	-0.0905182
2	0xbe2d9f4b	-0.16955297
3	0xbc9425c6	-0.018084418
4	0x3e334419	0.17506446
5	0xbc5a4bcf	-0.013323738
6	0x3d2633fa	0.040576912
7	0x3d1a3fdb	0.037658554
8	0xbdfbddce	-0.12298165
9	0xbdbfe4e2	-0.09369828

conv2.weight f4 [20, 10, 5, 5]
0	0x3d3489d9	0.044076774
1	0x3d3f280d	0.046669055
2	0xbe3c8849	-0.18411364
3	0xbd88ca2d	-0.06679187
4	0x3db56297	0.08856695
5	0xbd681fc5	-0.056670923
6	0xbd3fa09c	-0.04678403
7	0xbe01fa09	-0.12693037
8	0x3d1e6ac2	0.03867603
9	0x3d9913bc	0.07474467
10	0xbcc83c63	-0.024442857
11	0xbd1d0e44	-0.038343683
12	0xbc7ce9ea	-0.015436629
13	0x3daa0373	0.08301439
14	0x3df448d2	0.11927952
15	0xbceaf3c5	-0.028680691
16	0xbcc0224e	-0.023453858
17	0xbc3b6600	-0.011437893
18	0x3d86f015	0.06588761
19	0x3d59fcf1	0.05321974
20	0xbc41dbd3	-0.011832195
21	0x3d8585ee	0.06519686
22	0x3da86dd0	0.0822407
23	0x3d50541e	0.05086147
24	0xbcf5c3d7	-0.03000061
25	0xbd2f52fc	-0.04280375
26	0xbe2d6803	-0.16934209
27	0xbd2508c3	-0.04029156
28	0xbca1048b	-0.019655487
29	0x3c08b07b	0.0083428575
30	0xbe0be85c	-0.13662857
31	0xbe14bf29	-0.14526047
32	0x3cb3a5c9	0.021929638
33	0x3d3eef66	0.046615027
34	0xbd8f26e8	-0.06989843
35	0xbdf7b1f6	-0.1209449
36	0xbca92e44	-0.020651944
37	0xbd5053ab	-0.050861042
38	0xbd132d52	-0.035931893
39	0xbd399b91	-0.045314375
40	0xbd790763	-0.06079806
41	0x3d2a9a7c	0.041651234
42	0xbc9eb205	-0.019371996
43	0x3c2303b4	0.009949613
44	0xbdc00574	-0.0937604
45	0x3c980a7a	0.018559683
46	0x3d9980c6	0.07495265
47	0xbc63496c	-0.013872486
48	0xbd9c700f	-0.07638561
49	0xbe0114fd	-0.12605663
50	0x3d44fd31	0.048093025
51	0x3bea48d0	0.007149793
52	0x3d92667d	0.07148454
53	0x3d8a71df	0.067600004
54	0x3e026c65	0.12736662
55	0xbd0a8248	-0.033815652
56	0x3d67a942	0.0565579
57	0x3da958f3	0.08268919
58	0x3e16d92a	0.14731279
59	0xbc8bec86	-0.017080557
60	0x3bf34d23	0.007424967
61	0x3d18e406	0.037326835
62	0x3d948a0e	0.07252894
63	0x3d9a1bd1	0.07524837
64	0xbd1be335	-0.03805848
65	0xbda83386	-0.08212952
66	0xbdd0a1b2	-0.10187091
67	0xbc8e5ac1	-0.01737726
68	0xbd6acb87	-0.057323005
69	0x3b9e9af4	0.004840249
70	0xbd65d900	-0.05611515
71	0xbe037bc3	-0.1284018
72	0xbdc33cde	-0.09533094
73	0xbd7b407f	-0.061340805
74	0xbd3440f6	-0.044007264
75	0x3e15d7a9	0.14633049
76	0xbd1940bb	-0.037415247
77	0xbdc81204	-0.09769061
78	0xbd6d342f	-0.057911094
79	0xbd981d05	-0.0742741
80	0x3a4da78a	0.00078450947
81	0xbc790432	-0.015198754
82	0xbd81271a	-0.06306286
83	0xbc324bb8	-0.010882311
84	0x3bc6a93f	0.006062656
85	0x3d2f333c	0.04277347
86	0xbcc74a29	-0.024327355
87	0xbde6804c	-0.112549394
88	0xbe0b0ad7	-0.13578354
89	0xbd6fbbdb	-0.058528762
90	0x3df466ba	0.11933656
91	0x3d8100a1	0.06298948
92	0xbd7621fd	-0.060091008
93	0xbd3a1015	-0.045425493
94	0x3da7b1fc	0.08188245
95	0x3d104b86	0.035228275
96	0x3e0f0436	0.1396645
97	0x3db76e98	0.08956641
98	0x3da23883	0.07920935
99	0x3c5a05b6	0.013307026
100	0x3d8e90e4	0.069612294
101	0xbd8a3f77	-0.06750386
102	0x3cf0036d	0.029298509
103	0x3d44c0a5	0.048035283
104	0x3e1e3eba	0.15453616
105	0xbd8fc455	-0.07019869
106	0xbdd529c7	-0.10408359
107	0xbd4582f0	-0.048220575
108	0x3d87779e	0.06614612
109	0xbc709f25	-0.0146863805
110	0xbd8a464c	-0.06751689
111	0x3d8e7b95	0.06957165
112	0xbc652723	-0.013986382
113	0x3bc93d9b	0.006141377
114	0x3cd4409f	0.02590972
115	0xbd082cfd	-0.03324603
116	0xbc821205	-0.015877733
117	0x3d565267	0.05232468
118	0x3d31d204	0.043413177
119	0xbdb1e45e	-0.08686136
120	0xbceb4e0f	-0.028723745
121	0xbdc7b40e	-0.097511396
122	0xbddfd8a1	-0.109299906
123	0xbdc6e894	-0.097123295
124	0xbddeb3c2	-0.1087413
125	0xbc915774	-0.017741896
126	0x3d22806a	0.039673246
127	0x3e0d5cd6	0.13804945
128	0x3dbf0e3d	0.093288876
129	0xbd32dcf4	-0.04366775
130	0x3cdba786	0.02681328
131	0x3e0fe281	0.14051248
132	0x3e09816b	0.13428275
133	0x3da2d68b	0.07951077
134	0xbc26c62b	-0.010179083
135	0x3d5d3b5d	0.05401169
136	0x3dc9d714	0.09855476
137	0x3e1a1a4f	0.15049098
138	0x3d736af6	0.059428178
139	0xbdb28644	-0.087170154
140	0xbd832d13	-0.064050816
141	0x3d86718a	0.065646246
142	0x3cb4b709	0.022059934
143	0xbd9c5227	-0.07632857
144	0xbd0c5aab	-0.034266155
145	0xbd4a2eec	-0.049361154
146	0xbdb2b5d3	-0.087260865
147	0xbd99a05a	-0.07501288
148	0x3c0500e8	0.008117892
149	0xbd459961	-0.048241977
150	0xbd19e346	-0.03757026
151	0xbd741b40	-0.0595963
152	0x3cadbd91	0.021208556
153	0xb953054d	-0.00020124503
154	0x3d24e4d0	0.040257275
155	0x3d328728	0.043585926
156	0xbd1518ec	-0.03640072
157	0x3dd92245	0.106022395
158	0xbc6c6a80	-0.014429688
159	0xbd452a38	-0.048135966
160	0xbc9b4534	-0.018953897
161	0x3d866576	0.06562321
162	0x3d93f01f	0.07223534
163	0x3d253388	0.040332347
164	0xbd8f25a7	-0.069896035
165	0x3c659347	0.014012164
166	0xbd9fadc2	-0.077968135
167	0xbd3c585c	-0.045982704
168	0xbbfec309	-0.007774715
169	0xbda58a8d	-0.08083067
170	0x3cd3bb32	0.025846098
171	0xbd65bf6d	-0.05609076
172	0xbbe88152	-0.0070954943
173	0xbc1c3b46	-0.009535616
174	0xbdbb1d78	-0.0913648
175	0xbd07c58f	-0.03314739
176	0xbb87800d	-0.004135138
177	0xbdadc1eb	-0.084842525
178	0x3d456007	0.048187282
179	0x3de43a10	0.11143887
180	0xbbfd9dc5	-0.007739755
181	0x3d83b389	0.06430728
182	0xbd4f78bf	-0.05065226
183	0x3d67d322	0.056597836
184	0x3db8a777	0.090163164
185	0xbc944fb3	-0.01810441
186	0xbd730571	-0.05933136
187	0xbcb9bf0e	-0.02267411
188	0xbcb35b5a	-0.021894146
189	0x3cbe63ce	0.02324095
190	0x3d36aff3	0.044601392
191	0xbc8b9a4f	-0.017041354
192	0x3d98fa39	0.07469601
193	0x3e2db3f6	0.16963181
194	0x3e13975a	0.14413205
195	0x3e187b1a	0.1489071
196	0x3da92ba3	0.08260276
197	0x3c96a678	0.018389925
198	0x3cf2cf33	0.029639816
199	0xbe2fe717	-0.17177998
200	0x3d19e6f5	0.037573773
201	0xbdaf4632	-0.085583106
202	0xbd20f05a	-0.039291717
203	0xbd2377b5	-0.039909083
204	0xbd93959c	-0.0720627
205	0x3cac76f1	0.02105281
206	0xbd894664	-0.06702879
207	0xbdfb4bc3	-0.1227031
208	0x3c8ea2b9	0.017411577
209	0x3d594bf2	0.053050943
210	0x3d0c0816	0.0341874
211	0xbd7a5580	-0.061116695
212	0x3cf8ca5b	0.030369928
213	0x3d8bc4cd	0.06824646
214	0x3d301619	0.042989824
215	0x3dc5f063	0.09664991
216	0xbcbf00b3	-0.023315763
217	0x3ddccf36	0.1078171
218	0x3cdce1e3	0.02696318
219	0xbe24834a	-0.16065708
220	0xbd90cd67	-0.070704274
221	0xbdcf84da	-0.10132761
222	0x3c70aef7	0.014690152
223	0xbc7bd610	-0.015370861
224	0xbdd1967d	-0.102337815
225	0x3d9564a1	0.07294584
226	0xbdb5bddf	-0.08874106
227	0x3d2f22a1	0.042757634
228	0xbd03887f	-0.032112595
229	0xbd7d0466	-0.061771773
230	0x3d61a2a1	0.055086736
231	0x3d0ceccf	0.034405526
232	0xbcaa4444	-0.020784505
233	0xbe0aba17	-0.1354755
234	0xbc84f8e1	-0.016231956
235	0x3da37f46	0.0798326
236	0x3d8681d8	0.065677345
237	0xbdfdd348	-0.12393814
238	0xbda4e05e	-0.08050607
239	0xbc5fd3fc	-0.013661381
240	0x3ce4ef6f	0.027946202
241	0x3d38bf09	0.04510406
242	0xbc81feb2	-0.015868519
243	0xbc91668b	-0.017749092
244	0xbd939bac	-0.072074264
245	0xbe1f5313	-0.15559034
246	0xbdb00a2d	-0.08595691
247	0xbd93e41e	-0.07221244
248	0x3c230525	0.009949957
249	0xbe0c7840	-0.13717747
250	0xbd9cc86e	-0.076554164
251	0xbc533820	-0.012891799
252	0xbd6ef029	-0.058334503
253	0x3c3452d6	0.011006078
254	0x3d579065	0.05262794
255	0x3c4db99a	0.012556458

conv2.bias f4 [20]
0	0x3d165497	0.036701765
1	0xbc16a95b	-0.009195651
2	0x3d05eb00	0.032694817
3	0xbc25c19a	-0.010116959
4	0xbcbbd7ab	-0.022929987
5	0x3a4a979c	0.000772828
6	0xbaf63003	-0.0018782619
7	0x3adc77bc	0.0016820352
8	0xbd86bf92	-0.06579508
9	0xbbf76edd	-0.0075510577
10	0x3d0de0a3	0.03463806
11	0xbd879b04	-0.06621364
12	0xbd6eb254	-0.058275536
13	0x3d30244b	0.04300336
14	0xbc074352	-0.0082557965
15	0xbdb1eee2	-0.086881414
16	0xbaacfaf3	-0.0013197347
17	0xbd90cc76	-0.07070248
18	0xbca139d8	-0.019680902
19	0x3d2e6ee2	0.042586215

fc1.weight f4 [50, 320]
0	0xbda3911a	-0.0798666
1	0x3c88c689	0.016696231
2	0x3c24a818	0.010049842
3	0xbcaae75e	-0.020862278
4	0x3d67e32a	0.056613125
5	0xbbbc06c8	-0.005738113
6	0xbc316cbb	-0.010829146
7	0xbda01d16	-0.07818048
8	0xbc19eb43	-0.00939447
9	0xbc17a248	-0.009254999
10	0xbb91be83	-0.0044477596
11	0x3d135e74	0.03597875
12	0x3d613888	0.054985553
13	0xbdf8f26e	-0.12155615
14	0xbc6dc983	-0.014513376
15	0x3d1de3db	0.038547378
16	0xbdc93f49	-0.09826524
17	0x3cd5906b	0.02606984
18	0xbd3a1dbc	-0.045438513
19	0xbc6e19c6	-0.014532512
20	0xbcc19ee8	-0.023635343
21	0xbb92fefd	-0.0044859634
22	0x3c08aa18	0.008341335
23	0xbd396f74	-0.045272306
24	0x3c0873d0	0.008328393
25	0xbd148632	-0.03626079
26	0x3d2477a1	0.04015315
27	0x3ca48e21	0.020087304
28	0xbcbce071	-0.02305624
29	0xbcbfe0bb	-0.02342259
30	0x3b6184ee	0.0034411508
31	0xbc363d7a	-0.011123056
32	0xbdc5a2f6	-0.09650223
33	0xbc9e0019	-0.019287156
34	0x3cd07042	0.025444154
35	0xbd1da039	-0.03848288
36	0xbaed7460	-0.0018116347
37	0xbb3b9ea3	-0.002862849
38	0x3b73f589	0.0037225208
39	0x3d8eefd8	0.0697934
40	0x3d3c88f0	0.04602903
41	0x3cefb931	0.02926311
42	0xbba6135c	-0.005068226
43	0xbcb5ab03	-0.022176271
44	0xbb9164bc	-0.0044370573
45	0xbd4ada1c	-0.04952441
46	0x3c4c9987	0.012487776
47	0xbda7c7e7	-0.08192425
48	0xbc834018	-0.016021773
49	0xbcb6847a	-0.022279967
50	0x3c064c2d	0.008196873
51	0x3d8bf2f4	0.06833449
52	0xbcab32e5	-0.020898292
53	0x3d527890	0.05138451
54	0x3cac42ca	0.021027941
55	0x3d1a3355	0.03764661
56	0xbd1ac54e	-0.03778582
57	0xbdb2fe21	-0.087398775
58	0xbd2495d8	-0.040181965
59	0xbd7c8f31	-0.061659995
60	0xbdc025be	-0.09382199
61	0xbd5522e3	-0.052035224
62	0x3af096f1	0.0018355531
63	0xbdf95f41	-0.12176371
64	0xbd54c2d2	-0.051943608
65	0xbd928014	-0.07153335
66	0xbd981415	-0.07425705
67	0xbdab3c85	-0.083611526
68	0x3d97a666	0.07404785
69	0x3b8dddaa	0.004329403
70	0xbdb2d303	-0.087316535
71	0xbdb9bcf5	-0.09069244
72	0x3c1ce4e1	0.009576053
73	0xbd1b3da4	-0.037900582
74	0x3c41bce2	0.011824818
75	0x3da5acc6	0.080895945
76	0x3d444fc6	0.04792764
77	0x3bb3c95f	0.005486652
78	0x3cf65213	0.030068433
79	0x3d10afb7	0.035323825
80	0xbd49ee69	-0.04929963
81	0x3d6ff878	0.058586568
82	0xbd7d3b8c	-0.061824366
83	0xbe33ba3d	-0.17551513
84	0xbc6c1645	-0.014409606
85	0x3b2103b2	0.0024568853
86	0xbd603435	-0.05473729
87	0xbd04e50a	-0.03244499
88	0xbd145c67	-0.036220934
89	0x3bc6c033	0.0060653924
90	0xbbe156b8	-0.0068767928
91	0x3ba53e3e	0.0050428202
92	0x3c3694ae	0.011143846
93	0x3c1c70ba	0.0095483605
94	0x3db22e6a	0.08700259
95	0x3ca92d36	0.020651441
96	0x3d42984b	0.04750852
97	0xbc9c9e54	-0.019118465
98	0xbde5b6a9	-0.1121648
99	0xbd3a24f5	-0.0454454
100	0x3b158e98	0.0022820588
101	0xbd99c0b1	-0.07507456
102	0xbd4a625b	-0.049410205
103	0x3da41054	0.08010927
104	0x3c8f75e7	0.017512275
105	0xbd861834	-0.06547585
106	0x3d1f1176	0.03883501
107	0x3cd7347f	0.02627015
108	0x3d612963	0.05497111
109	0x3d27d3bf	0.04097342
110	0x3d88c43c	0.06678054
111	0x3d1383f3	0.03601451
112	0xbd7d9418	-0.06190881
113	0xbb32f8a5	-0.0027308848
114	0x3d832d24	0.06405094
115	0xbd50254e	-0.050816827
116	0xbd0a61d9	-0.03378472
117	0xbb89f74e	-0.004210389
118	0xbce263bd	-0.02763545
119	0x3c364ecd	0.011127186
120	0x3d173cf2	0.036923356
121	0x3c529ddc	0.012855019
122	0xbdc98128	-0.09839088
123	0x3c17534c	0.009236168
124	0x3cad5299	0.02115755
125	0xbc73f10a	-0.014889011
126	0xbcdf9425	-0.02729232
127	0x3d4fab7c	0.05070065
128	0xbdb899a2	-0.09013678
129	0xbd168065	-0.03674354
130	0x3cd60e00	0.026129723
131	0xbd53edaa	-0.051740326
132	0xbd9045e8	-0.070445836
133	0x3d079249	0.033098493
134	0x3d8010b6	0.06253187
135	0x3c61b16c	0.013775211
136	0x3c8eac87	0.017416252
137	0x3cc34931	0.023838611
138	0x3c592902	0.013254406
139	0xbd068dee	-0.0328502
140	0xbcc31e73	-0.02381823
141	0x3caab05f	0.020836053
142	0xbd10b209	-0.035326038
143	0xbd8b4516	-0.068002865
144	0xbbe0a1c8	-0.0068552233
145	0xbd89586a	-0.06706317
146	0xbdc681c7	-0.09692722
147	0xbd8fe9c7	-0.07027011
148	0x3db0a2f3	0.0862483
149	0x3d45434e	0.04815989
150	0xbd124087	-0.03570607
151	0xbd799acb	-0.060938638
152	0x3cc6d264	0.024270244
153	0xbd0fb867	-0.03508797
154	0xbc375396	-0.011189362
155	0x3d29946d	0.041401315
156	0x3dcaca0f	0.09901821
157	0x3d97eee0	0.07418609
158	0xbc5f0c19	-0.013613724
159	0x3d11657a	0.035497166
160	0xbc3516a6	-0.011052763
161	0xbd209c84	-0.039211765
162	0xbdb2e5fc	-0.08735272
163	0x3cf91832	0.030407045
164	0x3d584d9e	0.052808397
165	0xbd13253c	-0.03592418
166	0x3c2e80b9	0.010650807
167	0x3d517901	0.05114079
168	0xbd79b797	-0.0609661
169	0xbc5480ea	-0.012970189
170	0x3b8d668a	0.004315202
171	0x3d96a368	0.07355386
172	0x3d53f00e	0.051742606
173	0x3d2154dc	0.03938757
174	0x3d38497d	0.04499196
175	0x35f31220	1.8110186e-06
176	0xbd5ca8a8	-0.05387178
177	0xbe0b59df	-0.13608502
178	0xbdd418d1	-0.10356296
179	0xbdbe1817	-0.092819385
180	0x3d24400a	0.040100135
181	0x3d012211	0.03152663
182	0xbcfc52f6	-0.030801278
183	0xbd4488a6	-0.04798188
184	0x3d783af3	0.060603093
185	0xbc394248	-0.011307307
186	0x3ca06f95	0.019584456
187	0xbce366b2	-0.02775893
188	0x3d63fc95	0.055660803
189	0x3d42f828	0.04759994
190	0x3c23610b	0.009971867
191	0x3cc22adf	0.023702083
192	0xbc4f6a17	-0.012659571
193	0x3d0f9cce	0.03506165
194	0x3c687a4d	0.014189315
195	0x3d6e0a52	0.05811531
196	0x3cba71c6	0.02275933
197	0x3beff9a7	0.007323462
198	0xbc10d807	-0.008840567
199	0x3ba7d2a7	0.0051215473
200	0x3d0e2a2a	0.03470818
201	0xbdfc49ef	-0.12318789
202	0x3be2909c	0.0069142114
203	0x3d28820f	0.04113966
204	0xbc9bb7f5	-0.019008616
205	0xbd85a955	-0.06526438
206	0x3cd42ea5	0.025901148
207	0xbc44aaf0	-0.012003645
208	0xbc20eef3	-0.009822595
209	0x3da26603	0.079296134
210	0x3d9ded73	0.077113055
211	0x3c5dc470	0.013535604
212	0xbbbc142c	-0.0057397094
213	0xbc9d00f0	-0.019165486
214	0xb9dddc1e	-0.00042316405
215	0xbc855028	-0.016273573
216	0xbe336e44	-0.17522532
217	0x3c989044	0.018623479
218	0xbc5c80e1	-0.0134584615
219	0xbe1dbeec	-0.15404862
220	0xbe53956a	-0.20662466
221	0x3d45920c	0.048234984
222	0x3d5bde03	0.053678524
223	0xbe29e03d	-0.16589446
224	0x3d3a4b0d	0.04548173
225	0xbdbe0700	-0.09278679
226	0xbe23ef97	-0.16009365
227	0xbe0c305a	-0.1369032
228	0x3d2d9575	0.04237886
229	0xbdbef61b	-0.09324285
230	0xbd289045	-0.04115321
231	0x3d035d98	0.03207168
232	0x3c49217c	0.01227605
233	0x3d859cc9	0.06524045
234	0x3d77fb25	0.060542244
235	0x3ca21380	0.019784689
236	0x3d514541	0.051091436
237	0x3ce3db95	0.027814666
238	0x3d1222bf	0.035677668
239	0x3af7f939	0.0018918879
240	0xbcb77a99	-0.022397326
241	0x3c651f06	0.013984447
242	0xbcf66aa7	-0.030080153
243	0xbda2b1c9	-0.07944066
244	0x3cc64d23	0.024206704
245	0xbd048a69	-0.03235856
246	0x3cf9c32b	0.030488571
247	0x3decb63f	0.11558198
248	0x3da77183	0.081759475
249	0x3bb7e27d	0.0056117163
250	0x3d2875ee	0.04112809
251	0xbc6a0621	-0.014283688
252	0x3daed5d3	0.085368775
253	0xbd8f983a	-0.07011457
254	0xbde61baa	-0.11235745
255	0xbd7e34eb	-0.062062185

fc1.bias f4 [50]
0	0x3db09871	0.08622826
1	0x3daf6129	0.08563454
2	0x3d357e40	0.044309855
3	0x3d0240cc	0.031800076
4	0x3d846a73	0.06465616
5	0x3cb7f188	0.022454038
6	0x3a19600d	0.00058507995
7	0xbd0480e3	-0.03234948
8	0x3d37a688	0.04483655
9	0x3cd48259	0.02594106
10	0x3d28997d	0.041162003
11	0x3dc6e389	0.09711368
12	0x3c275f5d	0.0102156075
13	0x3d0519b8	0.03249523
14	0x3d2d01a9	0.04223791
15	0xbc023117	-0.007946274
16	0x3e0e0396	0.13868555
17	0x3d8f04b1	0.06983317
18	0x3dd41940	0.103563786
19	0xbbb0fd51	-0.0054012914
20	0x3d0329c2	0.032022245
21	0x3d4c4497	0.0498701
22	0xbb3849dc	-0.0028120195
23	0x3db0c8d7	0.08632057
24	0x3d8dbae3	0.069204114
25	0x3c8b4534	0.017000772
26	0x3da80ac7	0.082051806
27	0x3d4e21dc	0.05032526
28	0x3be95f58	0.0071219616
29	0xbb468d1e	-0.0030296515
30	0x3cbe9bc3	0.023267632
31	0x3d1ad01a	0.037796117
32	0x3d49fc5f	0.049312945
33	0x3a869820	0.0010268725
34	0x3b8a1f91	0.004215189
35	0x3e043754	0.12911731
36	0x3d3b3c9d	0.045712102
37	0xbd0ffc1a	-0.035152532
38	0x3d97a682	0.07404806
39	0x3c667dc3	0.01406807
40	0x3cc7e1a8	0.024399593
41	0x3dd8610b	0.105653845
42	0x3d8ca6c1	0.06867743
43	0xbc34b474	-0.0110293515
44	0x3d32bb11	0.04363543
45	0x3d76f06b	0.060287874
46	0xbc71add6	-0.014750918
47	0xbb63af19	-0.0034741818
48	0x3d961a8e	0.07329284
49	0x3d993aad	0.07481895

fc2.weight f4 [10, 50]
0	0x3e8b3bac	0.27193964
1	0xbe5aff1b	-0.21386378
2	0x3e496f02	0.19671252
3	0x3e12b9d2	0.14328697
4	0xbe7bf1ef	-0.24604009
5	0xbdb2b4de	-0.08725904
6	0xbe7e84b2	-0.24855307
7	0xbd66196b	-0.056176584
8	0xbe2b6de0	-0.16741133
9	0xbe8b0399	-0.27151182
10	0xbe8905de	-0.2676229
11	0xbe4d38db	-0.2004122
12	0xbe2557c7	-0.16146766
13	0x3e2b4b94	0.1672805
14	0x3e8e0545	0.27738395
15	0x3e449051	0.19195677
16	0x3d800ce5	0.062524594
17	0x3e973953	0.29535922
18	0x3e6cbb78	0.23118389
19	0xbe54b5f1	-0.2077253
20	0xbe24587d	-0.1604938
21	0xbe640067	-0.22265778
22	0xbe0e93a8	-0.13923514
23	0xbe802ca9	-0.25034073
24	0xbe52f71a	-0.20602074
25	0xbe9eb028	-0.30993772
26	0xbe88e285	-0.2673532
27	0xbe7f49bc	-0.24930471
28	0xbd09ceac	-0.033644363
29	0x3edfb00a	0.43688995
30	0xbe047156	-0.12933859
31	0xbe2add0e	-0.16685888
32	0x3e5a1dcb	0.21300428
33	0x3dfd9ee1	0.12383819
34	0xbe5af7ba	-0.21383563
35	0x3e7052b4	0.23469049
36	0x3e0a75f1	0.13521554
37	0x3d98f67c	0.07468888
38	0x3e134307	0.14381038
39	0xbe43edc4	-0.19133669
40	0xbe21d50c	-0.15803927
41	0xbe738b04	-0.23783499
42	0x3d5d5e68	0.05404511
43	0xbe4cf4da	-0.20015278
44	0x3e0c6499	0.1371025
45	0x3e8cb6cc	0.27483213
46	0xbdd27199	-0.10275573
47	0xbe03c759	-0.12869014
48	0xbe626493	-0.22108679
49	0x3e7dfa0f	0.24802421
50	0xbe02877b	-0.12746994
51	0x3e0a0ba3	0.13481002
52	0xbe6b7fba	-0.22997943
53	0x3dfa1bea	0.122123554
54	0x3e91904a	0.28430396
55	0x3e58735f	0.2113776
56	0xbe7a1032	-0.2442024
57	0x3cec295f	0.028828321
58	0xbdeadef5	-0.11468307
59	0xbe3712ca	-0.17878261
60	0x3e4bebc9	0.19914164
61	0x3e9ebfbf	0.31005666
62	0xbe380f71	-0.1797464
63	0xbe8f1255	-0.27943674
64	0xbdcc5a5a	-0.09978171
65	0xbe8e32db	-0.27773175
66	0x3e470ce5	0.19438513
67	0xbe0ab253	-0.13544588
68	0xbea002c8	-0.31252122
69	0xbd491ba5	-0.04909863
70	0xbe5f374e	-0.21798441
71	0xbb83a083	-0.004016937
72	0x3e2d54a8	0.16926825
73	0x3e8c5160	0.27405834
74	0x3e3c7ea1	0.1840768
75	0xbe80cba1	-0.25155357
76	0xbea60ed4	-0.32433188
77	0x3eab644a	0.33474952
78	0x3e5c8fcc	0.21539229
79	0x3ca09761	0.019603433
80	0x3e3daacf	0.1852219
81	0xbe46649d	-0.19374318
82	0xbe3a1514	-0.18172103
83	0xbe73bdf6	-0.23802933
84	0x3e2c66e7	0.16836129
85	0x3df9a565	0.1218975
86	0xbe1ba472	-0.1519945
87	0xbe727c61	-0.2368026
88	0x3dee00c9	0.116212435
89	0x3e755aa1	0.23960353
90	0xbe14f375	-0.14545996
91	0x3e5b2391	0.21400286
92	0xbe701bbb	-0.23448078
93	0xbe55c3c4	-0.2087546
94	0x3e205aa4	0.15659577
95	0xbe1eaba2	-0.1549516
96	0xbe626589	-0.22109045
97	0x3e8d7a24	0.27632248
98	0xbe917a8a	-0.28413802
99	0xbcba7fbf	-0.022765992
100	0xbde85c57	-0.113457374
101	0xbe0fa3dc	-0.14027351
102	0xbe3a7689	-0.1820928
103	0xbe62b3d6	-0.22138914
104	0xbe2c905f	-0.16851948
105	0x3e715af9	0.2356986
106	0x3e3e0209	0.18555464
107	0x3c990e55	0.018683592
108	0x3e7e9287	0.24860583
109	0x3de6c160	0.11267352
110	0xbe27b1a6	-0.16376361
111	0x3e96ed44	0.29477894
112	0x3e516421	0.20448352
113	0x3e17829e	0.1479592
114	0x3e5546a4	0.20827729
115	0x3e0e79de	0.13913676
116	0x3cff06d6	0.03113119
117	0xbe4bc22d	-0.19898291
118	0xbe27e7e5	-0.16397054
119	0xbe41649d	-0.18886037
120	0xbdc6effb	-0.097137414
121	0x3e65d4ab	0.22444408
122	0xbdf09979	-0.117480226
123	0xbe36f5e1	-0.17867233
124	0xbdf2f016	-0.11862199
125	0xbdea0310	-0.114263654
126	0xbe7dbd89	-0.24779333
127	0x3beec8a3	0.0072871014
128	0xbe918687	-0.2842295
129	0xbd090e21	-0.03346074
130	0xbdfe867d	-0.12427995
131	0xbda89e62	-0.08233334
132	0x3e574e43	0.21025948
133	0xbdd9b9b9	-0.10631127
134	0x3e3183f1	0.17335488
135	0x3e1a7346	0.15083036
136	0xbce43415	-0.027856866
137	0x3cb66795	0.022266189
138	0x3e1485b6	0.14504132
139	0x3e302789	0.17202581
140	0x3e44a9de	0.19205424
141	0x3e87c88b	0.2652019
142	0xbe038190	-0.12842393
143	0xbcaf4884	-0.021396883
144	0x3e0418ff	0.1290016
145	0x3e3d755b	0.18501799
146	0xbda7a37d	-0.0818548
147	0x3e967d37	0.29392406
148	0xbddce727	-0.10786276
149	0x3e5cba19	0.21555366
150	0xbe28f821	-0.16500904
151	0x3e6c0702	0.23049548
152	0x3e3d3fb9	0.1848134
153	0xbe8696aa	-0.26286823
154	0xbdcff889	-0.10154826
155	0xbe48134c	-0.19538611
156	0x3e104477	0.14088617
157	0x3e68787f	0.22702216
158	0x3cd31b0d	0.025769735
159	0x3df8d7e7	0.12150555
160	0xbd0990d8	-0.0335854
161	0x3e8bd8b5	0.27313772
162	0xbe33c915	-0.17557175
163	0xbc045e44	-0.008079115
164	0x3d3f932a	0.046771206
165	0xbe0da9d8	-0.13834321
166	0xbe51cbdb	-0.20487921
167	0xbd1d8e71	-0.03846592
168	0xbdbb2f84	-0.09139922
169	0x3e63aff8	0.22235096
170	0x3e6090fe	0.2193031
171	0x3e8c756f	0.27433345
172	0x3e05fa71	0.13083817
173	0xbe4af4a8	-0.19819891
174	0xbe5b7974	-0.2143305
175	0xbe18d906	-0.14926538
176	0x3e2c00e2	0.16797212
177	0xbda449a8	-0.08021861
178	0x3e74fcdf	0.23924588
179	0xbe196a5d	-0.1498198
180	0xbe8032a8	-0.25038648
181	0x3e8b16d7	0.27165863
182	0xbe2982d5	-0.16553815
183	0x3e24a7e3	0.16079669
184	0x3e429b78	0.19004619
185	0x3bc2bf11	0.005943187
186	0x3e75ae41	0.23992254
187	0xbbbe5be1	-0.0058092927
188	0xbe3dfdc4	-0.18553835
189	0xbe27e8f5	-0.1639746
190	0x3e4eecdd	0.20207544
191	0x3e6dbeac	0.23217267
192	0xbe484082	-0.19555858
193	0x3e215c37	0.15757833
194	0x3dca9b2d	0.09892879
195	0xbce378a3	-0.027767485
196	0xbe0c7857	-0.13717781
197	0xbda5f554	-0.08103433
198	0xbd8094a6	-0.062783524
199	0x3e5624ad	0.20912428
200	0xbdc8bc53	-0.09801545
201	0x3e252a91	0.16129519
202	0xbe5d7afd	-0.21628948
203	0x3e0abc55	0.13548405
204	0x3e859ab1	0.26094583
205	0x3e7290a3	0.23687987
206	0x3e3345f5	0.17507155
207	0xbe473141	-0.19452383
208	0xbe091128	-0.13385451
209	0xbe531239	-0.2061242
210	0x3e5f3b02	0.21799853
211	0xbcb5be88	-0.022185579
212	0x3ea789fe	0.32722467
213	0xbe71597c	-0.23569292
214	0xbd018112	-0.03161723
215	0x3e415c19	0.18882789
216	0xbd8d238e	-0.06891547
217	0xbe4cff5b	-0.20019285
218	0xbe39a58e	-0.1812956
219	0xbe1cba83	-0.15305524
220	0xbe2a2f65	-0.16619642
221	0xbdc95f4a	-0.09832628
222	0x3e68a65f	0.22719716
223	0x3e88ec79	0.26742914
224	0x3e4fb616	0.20284304
225	0x3e92f587	0.28702947
226	0x3dcd7a51	0.10033096
227	0xbd6a34a1	-0.057179097
228	0xbdb916e0	-0.09037566
229	0xbce0835a	-0.027406383
230	0x3e041805	0.12899788
231	0x3e9760d4	0.29566061
232	0xbdf8b13f	-0.12143182
233	0xbe904852	-0.28180176
234	0xbe572934	-0.21011811
235	0xbe871c49	-0.26388767
236	0xbe4a1561	-0.19734718
237	0x3ea50f07	0.32238027
238	0x3e148a3a	0.14505854
239	0xbdbebeec	-0.09313759
240	0xbe69459f	-0.22780465
241	0xbe305e69	-0.17223515
242	0x3e572a55	0.21012242
243	0xbbcf7e99	-0.0063322303
244	0xbe7d8a75	-0.24759848
245	0xbd66b6d9	-0.05632672
246	0xbe0875af	-0.13326143
247	0xbe2be942	-0.167882
248	0x3e836733	0.25664672
249	0xbcdf00a3	-0.027221983
250	0x3d495082	0.049149044
251	0xbd8dc73e	-0.06922768
252	0x3dec161b	0.11527654
253	0xbe8edf3c	-0.2790469
254	0xbd12c843	-0.035835516
255	0xbe05987e	-0.13046452

fc2.bias f4 [10]
0	0x3e110f6f	0.14166044
1	0x3e649851	0.22323729
2	0xbde41ccf	-0.11138307
3	0xbe66139e	-0.22468421
4	0xbccf939d	-0.025338942
5	0x3e51e605	0.20497902
6	0xbe682043	-0.22668557
7	0xbe257792	-0.16158894
8	0x3e3622b4	0.17786676
9	0xbe97cadc	-0.29646957
